ckpt/0.9846_cls_cnn.pth (torch, 103890 bytes, 20 tensors)

conv_layers.0.weight f4 [16, 1, 3, 3]
-0.1459712 -0.049185503 0.21685348 -0.285084 0.12592825 -0.2425715 0.13073388 0.28960112
0.10718196 0.12433123 0.16028924 0.11947005 0.23232691 0.096008234 0.2713607 0.1845318
0.3411638 -0.061330833 -0.0019498916 -0.10147919 -0.15746853 -0.10392274 -0.097987495 0.16953096
0.1776481 -0.2449462 -0.11473763 -0.28848094 0.13048741 0.15131225 0.19334464 -0.12755342
0.03578483 0.047304843 0.1013925 0.38933632 0.15247384 0.17186049 -0.10475165 -0.16743931
0.10641061 -0.14274922 0.19948669 -0.31450054 0.11145344 -0.24277736 0.33772147 -0.11083994
0.06507123 -0.16379063 0.13344914 0.1821799 -0.21210374 -0.014087123 0.24593015 -0.008298582
0.31523186 0.023339573 0.11725733 0.05516736 -0.071895145 -0.20374049 -0.2404477 -0.21706322
0.3125275 -0.23073661 0.023490384 -0.0651327 -0.19802547 -0.018845476 0.11198587 0.19973366
0.18063302 0.0054038945 0.007543753 0.26600635 -0.31337446 -0.18053576 -0.30629933 0.03825248
0.029554052 0.04486431 0.22127995 -0.062475033 -0.09757289 -0.24359173 0.1013911 -0.073397666
0.11111256 0.2936005 -0.20516701 -0.030498702 0.3728861 -0.060330745 -0.22272941 0.0779991
-0.1390902 -0.122415595 -0.12708047 -0.0660834 -0.03555873 0.30874166 0.27893326 -0.17561671
0.2077587 0.0372612 0.13813888 0.1971285 -0.10815094 0.29498577 0.06025143 0.17490597
0.17021929 0.25582558 -0.097782396 0.23957102 -0.23175108 0.24286015 0.13433063 -0.019927992
0.26865995 0.19770178 0.119844586 -0.21693057 -0.3697729 0.11901189 0.013645284 0.07387137
0.30719703 0.26453638 -0.12092136 -0.28225517 -0.20888609 -0.0059240465 -0.07849233 -0.2714452
0.0054921275 0.22614461 0.04003662 0.0046041226 0.012877586 -0.16734749 0.14125031 0.004255483
00000000: 7979 15be bd76 49bd d70e 5e3e 88f6 91be
00000010: 56f3 003e aa64 78be 1adf 053e 9946 943e
00000020: 3782 db3d 5fa1 fe3d dd22 243e b7ac f43d
00000030: 1be7 6d3e f79f c43d caef 8a3e e7f5 3c3e
00000040: 06ad ae3e 0a36 7bbd 8193 ffba 52d4 cfbd
00000050: 6e3f 21be 72d5 d4bd abad c8bd 8699 2d3e
00000060: 62e9 353e 2dd3 7abe 90fb eabd c6b3 93be
00000070: 7e9e 053e 99f1 1a3e 23fc 453e 5d9d 02be
00000080: 1d93 123d b9c2 413d dfa6 cf3d 1757 c73e
00000090: 1a22 1c3e 32fc 2f3e 0888 d6bd 3675 2bbe
000000a0: ceed d93d da2c 12be 3d46 4c3e 3706 a1be
000000b0: b341 e43d a19a 78be d4e9 ac3e 0d00 e3bd
000000c0: 1144 853d bbb8 27be e4a6 083e 5e8d 3a3e
000000d0: b931 59be adcd 66bc 1dd5 7b3e c7f6 07bc
000000e0: 1266 a13e a232 bf3c 9c24 f03d 2bf7 613d
000000f0: c33d 93bd 59a1 50be ec37 76be d245 5ebe
00000100: 9b03 a03e 3846 6cbe e86e c03c 4b64 85bd
00000110: 30c7 4abe d461 9abc d958 e53d fb86 4c3e
00000120: ddf7 383e 2713 b13b 9631 f73b fc31 883e
00000130: 9e72 a0be 5ede 38be 44d3 9cbe a2ae 1c3d
00000140: 571b f23c a4c3 373d 3697 623e d2e5 7fbd
00000150: 4cd4 c7bd 1c70 79be 23a6 cf3d 8451 96bd
00000160: fb8e e33d ce52 963e 4d17 52be 6ad8 f9bc
00000170: edea be3e 5f1d 77bd 2e13 64be febd 9f3d
00000180: a96d 0ebe 07b5 fabd 6221 02be bc56 87bd
00000190: 08a6 11bd 6313 9e3e 57d0 8e3e ded4 33be
000001a0: b2be 543e 339f 183d 4774 0d3e 0edc 493e
000001b0: 3d7e ddbd 6008 973e 34ca 763d 8d1a 333e
000001c0: f74d 2e3e 92fb 823e 2342 c8bd 1b52 753e
000001d0: 2850 6dbe 55b0 783e f88d 093e 0740 a3bc
000001e0: cc8d 893e 5672 4a3e 1471 f53d 0c23 5ebe
000001f0: e052 bdbe 81bc f33d 7890 5f3c df49 973d
00000200: ee48 9d3e 5071 873e 9ea5 f7bd c083 90be
00000210: 3ce6 55be 811e c2bb 96c0 a0bd defa 8abe
00000220: 4ef7 b33b 7492 673e 70fd 233d 2ede 963b
00000230: 83fc 523c 245d 2bbe eca3 103e 9471 8b3b

conv_layers.0.bias f4 [16]
-0.04749909 0.23832741 -0.13273843 0.06759178 -0.19408914 -0.35431248 -0.058977824 0.098155074
-0.25000814 -0.13350587 0.19924507 -0.10923648 0.1554641 0.19307531 0.24571787 -0.025245687
00000000: 688e 42bd 1a0c 743e 95ec 07be 8f6d 8a3d
00000010: 4ebf 46be 7268 b5be bb92 71bd 8705 c93d
00000020: 1101 80be c3b5 08be e606 4c3e 60b7 dfbd
00000030: fb31 1f3e 89b5 453e 779d 7b3e 0bd0 cebc

conv_layers.1.weight f4 [16]
1.0065182 0.992406 0.8994395 0.9739499 1.0589143 1.0188372 0.94301265 1.0712829
1.0616108 1.0129238 1.0445495 0.99494636 0.88108885 0.96422446 0.97537625 1.0168883
00000000: 97d5 803f 520e 7e3f ab41 663f c854 793f
00000010: 818a 873f 4269 823f 4769 713f cc1f 893f
00000020: dde2 873f 7da7 813f ccb3 853f ceb4 7e3f
00000030: 0a8f 613f 6ad7 763f 42b2 793f 6529 823f

conv_layers.1.bias f4 [16]
-0.044969942 -0.04753003 -0.10619016 -0.057585347 -0.022287639 0.004404927 -0.05667939 -0.01747894
0.031089738 0.0016909278 0.01215032 -0.027482135 -0.10758145 -0.051696986 0.061689883 -0.033294924
00000000: 6732 38bd d9ae 42bd 3a7a d9bd 9dde 6bbd
00000010: 9194 b6bc 3557 903b a628 68bd fe2f 8fbc
00000020: e8af fe3c 1fa2 dd3a 2312 473c 3722 e1bc
00000030: aa53 dcbd 38c0 53bd 88ae 7c3d 4260 08bd

conv_layers.1.running_mean f4 [16]
-0.023064744 0.49852297 -0.21496154 0.17952842 -0.19417337 -0.35669345 -0.019607143 0.080779746
-0.3023933 -0.078439124 0.11821222 0.047352124 0.28999862 0.27824333 0.24164088 -0.023956042
00000000: 46f2 bcbc 673e ff3e e11e 5cbe 4cd6 373e
00000010: 62d5 46be 86a0 b6be 299f a0bc da6f a53d
00000020: 4bd3 9abe b1a4 a0bd 4019 f23d 4df4 413d
00000030: b37a 943e e975 8e3e b570 773e 763f c4bc

conv_layers.1.running_var f4 [16]
0.0057149758 0.27587396 0.030832529 0.053674463 0.0013982826 0.00026767535 0.008933778 0.0021098861
0.011606272 0.013311407 0.03379731 0.09852784 0.076890185 0.030580955 0.001769555 0.004631278
00000000: b144 bb3b 5a3f 8d3e 8094 fc3c c1d9 5b3d
00000010: 9446 b73a c756 8c39 fb5e 123c 0446 0a3b
00000020: 3c28 3e3c 1618 5a3c 0c6f 0a3d f7c8 c93d
00000030: 9a78 9d3d e984 fa3c 6af0 e73a fac1 973b

conv_layers.4.weight f4 [32, 16, 3, 3]
0.031853363 -0.06966118 -0.06276952 -0.04912571 -0.10224833 -0.09255643 0.021599622 0.019917894
0.058245707 -0.05894879 0.027256446 0.07238299 0.020577334 -0.021805635 -0.022397825 -0.024763737
-0.089891985 0.04125731 0.039457493 0.01695103 0.06238326 -0.06906506 0.07042165 -0.005499077
0.0032559896 0.12186169 -0.029064998 -0.06150176 0.044530686 0.0039640437 0.0048905867 0.007985468
-0.06041117 -0.028163806 0.012422267 0.008315304 -0.011162708 -0.08057719 -0.086670265 -0.0119220335
-0.14025907 -0.035538957 -0.07472098 0.055920515 -0.079732955 0.039328445 -0.12703545 -0.038415395
0.09237265 -0.0741714 0.05688427 0.035032444 0.10885327 -0.039319433 0.053295914 0.06438182
-0.0221771 -0.004414249 -0.03684848 -0.0461192 0.011812399 -0.07505157 -0.034380898 0.03250998
-0.09799082 -0.072795786 0.014119542 -0.21150298 -0.048426535 0.17099029 0.021422364 0.06587098
0.009988779 0.13964306 -0.07614902 -0.043146968 -0.04539727 -0.020703599 0.012582815 -0.0543398
-0.08665006 0.063053414 0.0033650491 -0.016020812 0.07857524 -0.08242877 -0.08124986 -0.07486812
-0.006163549 0.036642574 0.06222025 -0.010004262 0.05047728 0.028943695 0.07865966 -0.064424545
0.096525185 0.01217521 0.022160418 0.08608397 0.06449149 -0.08572905 -0.08031732 -0.042238504
-0.017174503 -0.03244934 -0.038654234 0.082002535 -0.013118557 -0.035678584 0.015337513 -0.08495601
-0.090126514 -0.00015836203 -0.0028534296 0.032093216 0.024136448 0.01037205 -0.02170504 -0.0011738617
-0.036431868 -0.04439368 0.037648574 -0.037185322 0.074526146 -0.07131031 0.030860767 0.06640754
-0.038120847 0.013659637 -0.052272078 -0.055818323 -0.08341726 -0.066039965 0.067982 0.030461935
-0.04959706 -0.02178724 -0.087476626 -0.045069963 -0.07143306 0.01678228 -0.04166237 -0.064977445
-0.031757493 -0.011423251 0.056413762 0.05025576 -0.12046817 0.031998444 -0.06214839 0.055444155
0.16839829 0.042266123 0.0058860183 -0.10447516 -0.096753135 0.0337738 0.017373467 0.04367238
-0.08929155 0.06665656 0.05686205 0.06802458 0.022432223 0.1097205 0.06611957 0.04420955
0.04662723 0.014741472 -0.06931894 -0.031913333 0.037912272 0.038012516 -0.075502895 -0.087717965
-0.09539667 -0.015809484 0.07767382 -0.05571711 0.065621994 -0.097800665 0.03487343 -0.0064794365
-0.0065853912 0.10447451 -0.04428833 -0.12196421 0.12115732 0.1310627 0.0006452681 0.1053153
0.10732662 0.05732532 0.006958097 0.06323617 0.017738603 0.13172321 -0.12451569 0.028353134
-0.061152603 -0.05584031 0.011443975 0.038170002 0.0115894545 -0.06957757 -0.0006330195 0.11212449
0.09249485 -0.051019493 -0.0010531312 0.085703954 0.111876905 0.04292432 0.09166013 0.324237
-0.01771049 0.10368271 0.037995715 0.04615892 -0.00033793558 0.063747354 -0.07307976 -0.10173613
0.09266713 0.011822527 0.010989368 0.038348544 -0.09748499 -0.09600656 0.050759666 -0.034399897
0.017670825 -0.05504519 0.21346495 0.017915733 0.0026085826 0.13100433 0.04083927 0.05741132
0.15199243 0.019503811 -0.024170749 0.033331487 -0.07161554 0.036906775 -0.057331424 0.0032455309
0.011114614 0.042913556 -0.039279446 -0.042433143 -0.09710122 0.020140383 0.004600766 -0.022101985
00000000: ac78 023d 85aa 8ebd 4e8d 80bd 0a38 49bd
00000010: 9367 d1bd 3a8e bdbd b1f1 b03c da2a a33c
00000020: 0d93 6e3d 4974 71bd e948 df3c 883d 943d
00000030: cc91 a83c bba1 b2bc a57b b7bc 52dd cabc
00000040: 4a19 b8bd 6dfd 283d 2e9e 213d e3dc 8a3c
00000050: 9785 7f3d fb71 8dbd 3a39 903d 9a31 b4bb
00000060: 7162 553b 9f92 f93d b819 eebc 45e9 7bbd
00000070: cf65 363d cfe4 813b 3741 a03b 7bd5 023c
00000080: b471 77bd c8b7 e6bc c486 4b3c ea3c 083c
00000090: cae3 36bc a705 a5bd 2e80 b1bd a254 43bc
000000a0: 13a0 0fbe 4c91 11bd 5007 99bd e90c 653d
000000b0: 084b a3bd dd16 213d 9515 02be 7659 1dbd
000000c0: df2d bd3d 2de7 97bd 7bff 683d 2e7e 0f3d
000000d0: 77ee de3d 6a0d 21bd d14c 5a3d 9eda 833d
000000e0: c0ac b5bc 68a5 90bb 6fee 16bd 7ce7 3cbd
000000f0: cb88 413c a3b4 99bd fcd2 0cbd 2f29 053d
00000100: 69af c8bd f515 95bd a755 673c 3d94 58be
00000110: e75a 46bd 1418 2f3e f47d af3c 5de7 863d
00000120: faa7 233c 97fe 0e3e 04f4 9bbd e0ba 30bd
00000130: 7df2 39bd 989a a9bc 2728 4e3c 6993 5ebd
00000140: 9675 b1bd 2622 813d 2888 5c3b 143e 83bc
00000150: 0eec a03d 6ad0 a8bd 5466 a6bd 7554 99bd
00000160: 99f7 c9bb 8616 163d a9da 7e3d ebe8 23bc
00000170: 44c1 4e3d 541b ed3c 5118 a13d 04f1 83bd
00000180: ffae c53d 887a 473c c489 b53c cb4c b03d
00000190: 1d14 843d b692 afbd 687d a4bd 4802 2dbd
000001a0: 8bb1 8cbc 99e9 04bd e753 1ebd f2f0 a73d
000001b0: 37ef 56bc b523 12bd 314a 7b3c 6bfd adbd
000001c0: 4094 b8bd fc0d 26b9 9b00 3bbb 2d74 033d
000001d0: cdb9 c53c 88ef 293c c5ce b1bc 43dc 99ba
000001e0: 9539 15bd 26d6 35bd 6435 1a3d a34f 18bd
000001f0: 2aa1 983d 240b 92bd b8cf fc3c ad00 883d
00000200: 9b24 1cbd accc 5f3c 3f1b 56bd c1a1 64bd
00000210: abd6 aabd f63f 87bd 263a 8b3d 4f8b f93c
00000220: 4926 4bbd 277b b2bc f226 b3bd 489b 38bd
00000230: 7f4b 92bd fe7a 893c 29a6 2abd e512 85bd
00000240: 2514 02bd 9628 3bbc 1e12 673d fcd8 4d3d
00000250: 04b8 f6bd cd10 033d 4f8f 7ebd 6919 633d
00000260: 9a70 2c3e 3e1f 2d3d 80df c03b 13f7 d5bd
00000270: 8226 c6bd 6556 0a3d cd52 8e3c cfe1 323d
00000280: 7dde b6bd 3c83 883d 2ee8 683d 7950 8b3d
00000290: c8c3 b73c 24b5 e03d b269 873d 1315 353d
000002a0: 32fc 3e3d 3786 713c 17f7 8dbd 8eb7 02bd
000002b0: e649 1b3d 03b3 1b3d 43a1 9abd 7aa5 b3bd
000002c0: 545f c3bd e482 81bc 7413 9f3d a037 64bd
000002d0: d364 863d b74b c8bd 71d7 0e3d 7451 d4bb
000002e0: 44ca d7bb bbf6 d53d ae67 35bd 5fc8 f9bd
000002f0: 5421 f83d 4d35 063e 3627 293a 8caf d73d
00000300: 0fce db3d f4cd 6a3d c000 e43b f781 813d
00000310: 8c50 913c 73e2 063e 1502 ffbd d544 e83c
00000320: 277b 7abd cfb8 64bd 837f 3b3c 2658 1c3d
00000330: b2e1 3d3c af7e 8ebd 38f1 25ba 86a1 e53d
00000340: f16d bd3d d1f9 50bd 3809 8aba 8e85 af3d
00000350: b81f e53d 69d1 2f3d 4eb8 bb3d 6402 a63e
00000360: 9715 91bc 9a57 d43d 65a1 1b3d 2311 3d3d
00000370: f22c b1b9 f98d 823d d7aa 95bd 085b d0bd
00000380: 44c8 bd3d 46b3 413c c00c 343c 5d13 1d3d
00000390: 36a6 c7bd 169f c4bd 5ee9 4f3d e8e6 0cbd
000003a0: 68c2 903c 1177 61bd 8e96 5a3e 04c4 923c
000003b0: c1f4 2a3b 0026 063e 1447 273d 2228 6b3d
000003c0: e7a3 1b3e 75c6 9f3c bc01 c6bc 9986 083d
000003d0: 2bab 92bd 8f2b 173d 5bd4 6abd f9b2 543b
000003e0: 121a 363c 20c6 2f3d 7ce3 20bd 60ce 2dbd
000003f0: 01dd c6bd 72fd a43c 06c2 963b 390f b5bc

conv_layers.4.bias f4 [32]
0.013297133 0.041734494 0.064645976 -0.022652736 -0.041093197 0.008505765 0.011973975 0.0335643
-0.01776333 0.044574503 0.01985377 -0.05414845 -0.07769835 -0.036462475 -0.0016553417 0.03574259
-0.016109405 0.0645178 0.014860903 -0.031062877 0.05635529 -0.026588477 0.020928504 0.025991442
0.085199095 -0.03716843 -0.022561084 -0.04819077 0.05695562 -0.037152886 0.06745213 -0.018806135
00000000: 38dc 593c caf1 2a3d 1c65 843d 3b92 b9bc
00000010: 5751 28bd c45b 0b3c 7e2e 443c b87a 093d
00000020: 6784 91bc c193 363d 60a4 a23c c4ca 5dbd
00000030: 5020 9fbd ad59 15bd 0df8 d8ba d266 123d
00000040: dff7 83bc e921 843d 257b 733c 9377 febc
00000050: ced4 663d 14d0 d9bc 4172 ab3c 01ec d43c
00000060: dd7c ae3d ec3d 18bd 06d2 b8bc af63 45bd
00000070: 4c4a 693d a02d 18bd 5824 8a3d 530f 9abc

conv_layers.5.weight f4 [32]
0.93332773 0.897899 1.0162239 1.0615033 0.85554904 0.79690176 1.0264866 1.0125893
1.0606403 0.9734336 1.0741483 0.9775995 0.98821026 0.98737866 1.02862 1.0293224
0.8993063 1.0335509 1.025457 0.82978714 0.9324675 0.9930616 1.1367506 0.88299924
0.91428095 1.05918 0.96887535 1.0302917 0.8573908 1.0228932 1.0145795 0.8925118
00000000: 91ee 6e3f b5dc 653f a013 823f 57df 873f
00000010: 4305 5b3f c101 4c3f ea63 833f 879c 813f
00000020: 10c3 873f f232 793f b17d 893f f643 7a3f
00000030: 59fb 7c3f d9c4 7c3f d2a9 833f d6c0 833f
00000040: f038 663f 654b 843f 2d42 833f ee6c 543f
00000050: 31b6 6e3f 4939 7e3f 0b81 913f 3d0c 623f
00000060: 510e 6a3f 3693 873f 3708 783f 99e0 833f
00000070: f77d 5b3f 2aee 823f bedd 813f a77b 643f

conv_layers.5.bias f4 [32]
-0.053840313 -0.1222627 -0.12233547 0.03724421 -0.13786617 -0.18808365 -0.13452995 -0.102778
-0.14499602 -0.07255543 0.0603673 -0.12746589 -0.17653859 -0.15467077 -0.1585386 -0.017924013
-0.21534674 -0.0045784744 -0.12937014 -0.184295 -0.07658037 -0.14650297 -0.17810594 -0.14210215
-0.163055 -0.14532395 -0.16629264 -0.02131032 -0.110421754 -0.17367831 0.011142765 -0.12257472
00000000: a987 5cbd de64 fabd 058b fabd 628d 183d
00000010: ca2c 0dbe 0099 40be 38c2 09be 467d d2bd
00000020: d679 14be f197 94bd b443 773d 6b86 02be
00000030: 88c6 34be 0462 1ebe f157 22be 61d5 92bc
00000040: db83 5cbe 0707 96bb 9b79 04be d4b7 3cbe
00000050: 2bd6 9cbd e004 16be 6761 36be 3a83 11be
00000060: e4f7 26be cdcf 14be 9e48 2abe fb92 aebc
00000070: cd24 e2bd bad8 31be 2590 363c 7408 fbbd

conv_layers.5.running_mean f4 [32]
-0.48933357 0.78189427 -0.35089028 -1.325661 -0.20994651 -0.010247619 -0.48575848 -0.29823518
-0.4622576 -0.09215136 -0.99533683 -0.5534146 -0.36152306 -0.46144697 -0.8349094 -0.3295571
1.3710068 -0.41549048 -0.42604578 -0.5583652 -0.5853741 0.03065564 -0.49879748 -0.69440275
-0.48885524 -0.50364333 -0.68431866 -0.26451078 -0.63735735 -0.61687505 -1.5835793 -0.24161997
00000000: ee89 fabe 392a 483f e4a7 b3be 42af a9bf
00000010: 38fc 56be a1e5 27bc 56b5 f8be 48b2 98be
00000020: 07ad ecbe dab9 bcbd 65ce 7ebf 94ac 0dbf
00000030: 8d19 b9be c742 ecbe 9fbc 55bf b5bb a8be
00000040: 277d af3f 2bbb d4be ac22 dabe 06f1 0ebf
00000050: 14db 15bf 8921 fb3c 6262 ffbe 61c4 31bf
00000060: 3c4b fabe c5ee 00bf 822f 2fbf f56d 87be
00000070: da29 23bf 86eb 1dbf bab2 cabf 3a6b 77be

conv_layers.5.running_var f4 [32]
1.0336877 0.71826273 1.1995493 1.9400033 0.8718153 2.2408102 1.7214477 1.3249257
1.3749 0.56893545 2.247208 0.7029214 0.4665795 1.0826075 0.7578592 0.5889196
1.1583754 1.2997603 1.1218796 2.0423985 0.6559086 0.47334805 0.9932058 1.0378733
1.4421157 0.7845394 2.964275 0.94047886 2.0441284 1.7343078 4.539289 0.78702533
00000000: e14f 843f 11e0 373f d58a 993f 0752 f83f
00000010: 4a2f 5f3f 6f69 0f40 6658 dc3f 2a97 a93f
00000020: b9fc af3f c1a5 113f 42d2 0f40 a8f2 333f
00000030: 82e3 ee3e e292 8a3f 0f03 423f 6fc3 163f
00000040: a545 943f 8c5e a63f c099 8f3f a8b6 0240
00000050: a0e9 273f ad5a f23e bc42 7e3f 08d9 843f
00000060: 3f97 b83f 93d7 483f aeb6 3d40 39c3 703f
00000070: 00d3 0240 ccfd dd3f db41 9140 7e7a 493f

conv_layers.8.weight f4 [64, 32, 3, 3]
-0.043772556 0.0066513973 0.02006294 0.042844877 -0.04587499 -0.030311892 0.016554805 -0.0005950921
-0.03728409 -0.021634754 0.02930403 0.0410402 0.067501634 -0.033643004 0.084482275 0.08377599
0.034694258 0.04186161 -0.10278993 -0.0455297 -0.081884764 -0.0067231106 -0.045070104 0.002570465
-0.08608912 -0.017229022 -0.0061267056 0.030403135 0.0037943895 -0.032547984 0.022426467 0.06422499
-0.006723492 0.036152758 -0.024033966 0.014089653 0.1396823 0.047537353 0.10646439 0.054427683
0.00671217 -0.011762095 0.044345446 0.0132360635 0.015061371 0.061704606 -0.03130893 0.05290252
0.0005944707 -0.0311655 0.007220628 0.012559393 -0.016748644 0.016713234 -0.004272811 -0.04536977
-0.0153032495 -0.05598953 -0.01926668 -0.03169696 -0.025643567 -0.029972222 -0.055270035 -0.06949156
-0.05061023 -0.09218803 -0.009927481 -0.015968755 -0.03735219 -0.07937305 -0.005530764 -0.078016214
0.016728213 0.06799893 -0.029789995 0.04151673 0.045816682 -0.009208499 0.0035922476 0.014043442
0.044119768 0.02610047 0.048243765 -0.056392547 0.03508287 0.056093074 0.06990954 0.06462714
0.014075075 0.02366607 -0.035671055 -0.001985489 -0.033542667 -0.08611858 -0.0008615395 -0.04576792
-0.0061975177 -0.043230336 -0.06295748 -0.004983624 0.040908426 0.050604094 0.02950843 0.08925115
0.08162339 0.07270278 0.08153213 0.07996471 0.026455514 0.0005655742 -0.11039693 0.10477447
0.050001144 -0.012723753 0.12905952 0.046654165 -0.006205849 -0.00800998 0.08324771 0.0236417
-0.013882517 -0.014364487 0.06376326 -0.046310276 -0.014107785 -0.04360507 0.012838097 -0.018751884
-0.029095663 -0.028983647 -0.0025174096 -0.024877384 -0.05645235 -0.056301836 -0.051792834 0.036768638
-0.007560081 -0.02524614 0.107760735 -0.016310425 0.046857476 0.12341972 0.035605773 -0.03238981
0.009755165 -0.015167622 -0.0016574269 0.009770235 -0.00036188736 0.06658918 0.045090977 0.0079773255
0.0061409352 0.025959915 -0.0091363415 -0.0032667066 0.03057757 0.009277252 -0.01339067 -0.051399168
-0.024584675 -0.010956825 0.01919165 -0.037338234 -0.03526846 -0.0012900393 -0.046526875 -0.041695353
-0.06160963 -0.06574378 -0.07745487 0.035281733 -0.034138765 0.035293248 -0.042690642 -0.0076457188
-0.028105749 0.031822633 -0.0429824 0.026774585 -0.000993691 -0.00061272725 -0.014525049 -0.04297497
-0.052833904 -0.010978734 -0.035112202 -0.009557989 -0.026286613 0.049199343 0.058588155 0.10215857
0.06255174 0.050181165 0.11893687 0.06761789 0.07089274 0.07200898 -0.072640754 -0.01678378
-0.039873295 -0.008685437 -0.036260452 -0.03269743 -0.023624703 0.009347614 -0.026604598 0.027819054
-0.01581519 -0.043296266 -0.024907265 -0.047680017 -0.02888785 0.022103071 0.04474081 0.0173153
-0.022292582 -0.0695747 0.018007861 -0.013212772 0.03576695 -0.04483435 -0.036870226 -0.077801414
-0.004825653 0.009682616 -0.06533951 0.06163314 0.0131445285 0.020731041 0.054815646 -0.019585036
-0.0047542593 0.016121168 -0.04194728 -0.024877105 0.008403279 -0.05484921 0.040534575 -0.0016299578
-0.064810604 -0.016238632 -0.02775759 0.1050623 0.04009361 0.08485362 0.049114957 0.04871247
0.07752612 0.08161168 0.04916213 0.018191198 0.016524244 0.047987916 0.013572424 0.06419546
00000000: da4a 33bd f7f3 d93b 095b a43c 1c7e 2f3d
00000010: 6ae7 3bbd a550 f8bc f19d 873c f4ff 1bba
00000020: 34b7 18bd 5e3b b1bc 010f f03c c519 283d
00000030: 4c3e 8a3d 3fcd 09bd 0b05 ad3d bf92 ab3d
00000040: 911b 0e3d 1477 2b3d 8783 d2bd 5a7d 3abd
00000050: 33b3 a7bd 8a4d dcbb 6e9b 38bd 3f75 283b
00000060: 7e4f b0bd e123 8dbc 88c2 c8bb ff0f f93c
00000070: 4bab 783b 0951 05bd b6b7 b73c 6488 833d
00000080: bd50 dcbb ea14 143d e1e2 c4bc 4ad8 663c
00000090: e008 0f3e 87b6 423d 010a da3d 90ef 5e3d
000000a0: c3f1 db3b cdb5 40bc 92a3 353d 13dc 583c
000000b0: f8c3 763c f8bd 7c3d cb3d 00bd 50b0 583d
000000c0: 41d6 1b3a ca4e ffbc 059b ec3b eac5 4d3c
000000d0: 7434 89bc 31ea 883c f002 8cbb a7d5 39bd
000000e0: 7bba 7abc 4755 65bd 28d5 9dbc acd4 01bd
000000f0: 7512 d2bc 4e88 f5bc d562 62bd 9751 8ebd
00000100: ac4c 4fbd 14cd bcbd e0a6 22bc e8d0 82bc
00000110: 9cfe 18bd 568e a2bd 693b b5bb f7c6 9fbd
00000120: 9b09 893c 0643 8b3d 260a f4bc 720d 2a3d
00000130: 46aa 3b3d 3fdf 16bc ea6b 6b3b 7716 663c
00000140: eeb6 343d a7d0 d53c 419b 453d dffb 66bd
00000150: 0eb3 0f3d dac1 653d bc2c 8f3d 3c5b 843d
00000160: 259b 663c 59df c13c d01b 12bd fa1e 02bb
00000170: 0964 09bd f05e b0bd f0d8 61ba 2477 3bbd
00000180: 8c14 cbbb 4b12 31bd daef 80bd ab4d a3bb
00000190: 988f 273d 3d46 4f3d aabb f13c 4fc9 b63d
000001a0: 2a2a a73d 32e5 943d 51fa a63d 8ac4 a33d
000001b0: 3cb9 d83c 0b43 143a c917 e2bd ff93 d63d
000001c0: 00ce 4c3d 4a77 50bc 2e28 043e 7018 3f3d
000001d0: 6f5a cbbb 4b3c 03bc c67d aa3d 3dac c13c
000001e0: 7f73 63bc 0659 6bbc 5096 823d d8af 3dbd
000001f0: 5724 67bc 3b9b 32bd e256 523c 8d9d 99bc
00000200: 075a eebc 1d6f edbc 20fb 24bb a8cb cbbc
00000210: 943a 67bd c19c 66bd b924 54bd b69a 163d
00000220: 8eba f7bb fed0 cebc a9b1 dc3d 719d 85bc
00000230: a0ed 3f3d 7ac3 fc3d 5cd7 113d 2dab 04bd
00000240: 21d4 1f3c 9e81 78bc 053e d9ba 5613 203c
00000250: b3bb bdb9 e85f 883d 51b1 383d 54b3 023c
00000260: e639 c93b e3a9 d43c 98b0 15bc 3e16 56bb
00000270: d07d fa3c 9dff 173c 8a64 5bbc ef87 52bd
00000280: cd65 c9bc 4184 33bc cf37 9d3c faef 18bd
00000290: a975 10bd 8916 a9ba f792 3ebd bfc8 2abd
000002a0: 615a 7cbd ada4 86bd a9a0 9ebd 9483 103d
000002b0: 17d5 0bbd a78f 103d 62dc 2ebd f088 fabb
000002c0: 073e e6bc 7358 023d 500e 30bd 6056 db3c
000002d0: bd3e 82ba 6e9f 20ba 79fa 6dbc 8606 30bd
000002e0: 5d68 58bd 26e0 33bc d0d1 0fbd 1d99 1cbc
000002f0: 0657 d7bc 4085 493d 22fa 6f3d 8338 d13d
00000300: 201b 803d c48a 4d3d 2c95 f33d 407b 8a3d
00000310: 3630 913d 7279 933d adc4 94bd 237e 89bc
00000320: 2e52 23bd 5d4d 0ebc d785 14bd beed 05bd
00000330: 9888 c1bc bc26 193c e3f1 d9bc c9e4 e33c
00000340: db8e 81bc 6d57 31bd 520a ccbc 1f4c 43bd
00000350: 36a6 ecbc 8011 b53c 2442 373d d1d8 8d3c
00000360: ef9e b6bc 2e7d 8ebd 3985 933c 627a 58bc
00000370: 5e80 123d 39a4 37bd 3c05 17bd 5956 9fbd
00000380: 8320 9ebb d6a3 1e3c b9d0 85bd 0873 7c3d
00000390: 265c 573c 25d4 a93c 5f86 603d cc70 a0bc
000003a0: 9ec9 9bbb 8a10 843c e9d0 2bbd 12cb cbbc
000003b0: e8ad 093c 91a9 60bd 9507 263d 4fa4 d5ba
000003c0: 6cbb 84bd e106 85bc e363 e3bc e72a d73d
000003d0: 3239 243d bcc7 ad3d c42c 493d ba86 473d
000003e0: 04c6 9e3d 0624 a73d 3b5e 493d b505 953c
000003f0: da5d 873c fa8e 443d df5e 5e3c e978 833d

conv_layers.8.bias f4 [64]
-0.007353569 0.029043218 -0.039709 0.043016404 0.054161534 0.009711374 -0.051712763 0.014271092
0.02758229 -0.00017426122 0.03786816 -0.03574415 0.01110218 -0.035865724 0.017948426 -0.04148253
-0.028302709 0.024600994 -0.012715366 0.04305893 0.041021522 0.020191256 -0.011184352 -0.038501408
0.030693077 -0.01999461 0.0040159877 -0.0070796544 0.027878255 0.028414592 0.059330806 -0.016259123
-0.0054284437 -0.0048708003 -0.032725472 -0.03139236 -0.046149597 0.009187114 -0.050080236 -0.031208487
0.053168587 0.0052554645 -0.0017742339 0.006160407 0.02275758 -0.036765467 -0.016802192 0.004691107
-0.003119441 0.032435935 -0.021575905 -0.004903995 0.018197156 -0.04743458 -0.010149268 0.04215795
-0.04568647 -0.0028871666 0.054459244 0.014203521 -0.008799013 -0.03137684 -0.009191873 -0.013873746
00000000: 35f6 f0bb 0bec ed3c e8a5 22bd f831 303d
00000010: 7cd8 5d3d 741c 1f3c c3d0 53bd 4cd1 693c
00000020: 41f4 e13c e4b9 36b9 a51b 1b3d 7568 12bd
00000030: ebe5 353c f0e7 12bd 9408 933c 96e9 29bd
00000040: 15db e7bc 0688 c93c 1c54 50bc 905e 303d
00000050: 2f06 283d 2268 a53c 933e 37bc a7b3 1dbd
00000060: 0c70 fb3c bdcb a3bc 8c98 833b 72fc e7bb
00000070: f060 e43c b8c5 e83c dc04 733d da31 85bc
00000080: 16e1 b1bb 3c9b 9fbb 250b 06bd 4695 00bd
00000090: 5c07 3dbd 8d85 163c ef20 4dbd f1a8 ffbc
000000a0: 4ec7 593d 0836 ac3b 698d e8ba 3ddd c93b
000000b0: 1b6e ba3c 6397 16bd c0a4 89bc dcb7 993b
000000c0: 896f 4cbb 8bdb 043d f4bf b0bc b1b1 a0bb
000000d0: 3412 953c c34a 42bd 1e49 26bc d1ad 2c3d
000000e0: bc21 3bbd 9e36 3dbb a810 5f3d e3b5 683c
000000f0: bc29 10bc 0085 00bd 8299 16bc b54e 63bc

conv_layers.9.weight f4 [64]
1.3887621 1.2904947 1.4421142 1.425697 1.3757898 1.3774204 1.2721434 1.3158146
1.5364434 1.4124964 1.431944 1.4351226 1.1738833 1.3540353 1.1767248 1.4325256
1.2857194 1.3121413 1.3399299 1.3507509 1.4540961 1.2898628 1.2313055 1.5601423
1.3121953 1.3923546 1.5150673 1.5081062 1.3699713 1.1624804 1.1979687 1.5472232
1.242367 1.4939021 1.5126954 1.4309316 1.2044312 1.1314492 1.499748 1.2352755
1.2507126 1.3343158 1.3018764 1.3938309 1.4916683 1.4156597 1.402608 1.5617499
1.4449793 1.3778328 1.4565871 1.326541 1.463686 1.4436071 1.3825644 1.4259801
1.4058511 1.4356469 1.4132214 1.244149 1.3861493 1.2708522 1.3263392 1.1243596
00000000: f5c2 b13f ee2e a53f 3397 b83f 3d7d b63f
00000010: e119 b03f 504f b03f 98d5 a23f 9d6c a83f
00000020: 2daa c43f afcc b43f f149 b73f 19b2 b73f
00000030: cf41 963f 0751 ad3f eb9e 963f 005d b73f
00000040: 7492 a43f 3ff4 a73f d382 ab3f 68e5 ac3f
00000050: d21f ba3f 391a a53f 6b9b 9d3f beb2 c73f
00000060: 04f6 a73f ad38 b23f baed c13f a009 c13f
00000070: 385b af3f 28cc 943f 0a57 993f 690b c63f
00000080: e205 9f3f 2f38 bf3f 01a0 c13f c428 b73f
00000090: cd2a 9a3f 54d3 903f bef7 bf3f 821d 9e3f
000000a0: 5a17 a03f dcca aa3f e3a3 a63f 0d69 b23f
000000b0: fdee be3f 5634 b53f a988 b33f 6ce7 c73f
000000c0: 15f5 b83f d35c b03f 7271 ba3f 18cc a93f
000000d0: 105a bb3f 1ec8 b83f dff7 b03f 8486 b63f
000000e0: eef2 b33f 47c3 b73f 70e4 b43f 4640 9f3f
000000f0: 576d b13f 49ab a23f 7cc5 a93f 04eb 8f3f

conv_layers.9.bias f4 [64]
0.256468 0.20863853 0.41233283 0.06135823 0.04239168 0.21418656 0.17419416 0.21413933
0.053172696 0.061239097 0.3537074 0.4086947 0.1077252 0.3097718 0.114783846 0.37753677
0.1363167 0.21072623 0.20424005 0.35359424 0.048665356 0.20195709 0.14920948 0.059250716
0.2823747 0.06901271 0.07796839 0.1541718 0.23336962 0.09137922 0.11089369 -0.0070079477
0.14510453 0.022651838 0.08648879 0.06457805 0.130659 0.0594669 0.018508818 0.1459938
0.15069231 0.22446583 0.14625722 0.058707204 0.040949628 0.29406258 0.08081072 0.08709706
-0.011550784 0.32499793 0.31564072 0.2811508 0.03726093 0.058234908 0.07289026 0.0618495
0.32444814 0.11536043 0.057718217 0.19800797 0.34643862 0.17410286 0.20311944 0.05136564
00000000: c64f 833e 57a5 553e 4a1d d33e c452 7b3d
00000010: e6a2 2d3d b953 5b3e f45f 323e 5747 5b3e
00000020: 9dcb 593d d9d5 7a3d 2319 b53e 6f40 d13e
00000030: 089f dc3d 699a 9e3e cb13 eb3d 804c c13e
00000040: 9b96 0b3e 9ec8 573e 4e24 513e 4e0a b53e
00000050: 5355 473d d7cd 4e3e 5fca 183e e1b0 723d
00000060: 6b93 903e 8956 8d3d e4ad 9f3d 36df 1d3e
00000070: 72f8 6e3e 0725 bb3d 3b1c e33d eda2 e5bb
00000080: 4896 143e 5990 b93c 0921 b13d 7f41 843d
00000090: 79cb 053e 9093 733d ce9f 973c 667f 153e
000000a0: 164f 1a3e 5fda 653e 74c4 153e f776 703d
000000b0: ccba 273d 5f8f 963e 1780 a53d f25f b23d
000000c0: 803f 3dbc 2166 a63e a99b a13e fff2 8f3e
000000d0: eb9e 183d ba87 6e3d 7d47 953d e755 7d3d
000000e0: 111e a63e 1742 ec3d f069 6c3d 9ac2 4a3e
000000f0: 6760 b13e 0548 323e 8bfe 4f3e c764 523d

conv_layers.9.running_mean f4 [64]
0.56685627 0.6454575 0.7419011 0.56295943 0.35555863 0.50919414 0.4384356 0.54303694
0.5769599 0.37617207 -1.3413329 -1.2638091 0.43490756 -1.5406328 0.41816837 -1.3777819
-1.235777 0.6590345 0.34145644 0.6049749 0.5185179 0.6069041 0.5125851 0.5844763
-0.91190636 0.5847219 0.5003293 0.58587873 0.6959117 0.7112586 0.68919337 0.49191085
0.60259557 0.4683392 0.49438748 0.49979782 0.43376175 0.63671327 0.3792172 0.4468042
0.7853393 0.68189543 -1.4017562 0.44327757 0.6017787 0.6079574 0.71319515 0.6564013
0.5028393 -1.4092278 0.5278492 -1.2848026 0.47978413 0.43189692 0.5102201 0.37612432
0.7761576 0.4939391 0.5928383 0.47866908 0.6705874 0.5459685 0.45018446 0.36889145
00000000: 7e1d 113f b43c 253f 3bed 3d3f 1c1e 103f
00000010: c80b b63e 8c5a 023f a27a e03e 7804 0b3f
00000020: a5b3 133f a099 c03e ccb0 abbf 7fc4 a1bf
00000030: 34ac de3e 7533 c5bf 2a1a d63e 285b b0bf
00000040: f12d 9ebf 7cb6 283f 61d3 ae3e a3df 1a3f
00000050: 97bd 043f 115e 1b3f c738 033f 3da0 153f
00000060: b272 69bf 56b0 153f 9515 003f 26fc 153f
00000070: 4527 323f 0b15 363f fa6e 303f bddb fb3e
00000080: b443 1a3f 28ca ef3e 5b20 fd3e 80e5 ff3e
00000090: 0516 de3e a4ff 223f c228 c23e 85c3 e43e
000000a0: ff0b 493f b390 2e3f bf6c b3bf 47f5 e23e
000000b0: 2b0e 1a3f 19a3 1b3f f593 363f ea09 283f
000000c0: 14ba 003f 9461 b4bf 2021 073f 6974 a4bf
000000d0: 44a6 f53e 9821 dd3e c99d 023f 5e93 c03e
000000e0: 44b2 463f 96e5 fc3e 40c4 173f 1d14 f53e
000000f0: 9eab 2b3f 97c4 0b3f 947e e63e 57df bc3e

conv_layers.9.running_var f4 [64]
0.6632371 0.7832574 1.1195871 0.1686376 0.17162788 0.6939454 0.64811563 0.74315524
0.1812067 0.18133172 0.87626266 1.0054239 0.57622784 1.4565208 0.54016536 1.0024563
0.498046 0.8106892 0.7350771 0.7379576 0.14123936 0.7657907 0.571004 0.1785842
0.9088088 0.16229413 0.19933662 0.2461476 0.7147048 0.6340536 0.43542594 0.16007334
0.6474609 0.1739682 0.21504118 0.17399031 0.82413435 0.5625457 0.18175846 0.6087764
0.6404796 0.79052293 0.62135565 0.14237373 0.20473158 0.9765423 0.18586814 0.17896573
0.18527909 1.0023135 0.85215896 1.0962094 0.15606077 0.23286119 0.13473606 0.1671137
0.98232126 0.17168695 0.14581737 0.5562231 0.8285425 0.67323035 0.72930205 0.5492695
00000000: e8c9 293f 8f83 483f a14e 8f3f 56af 2c3e
00000010: 38bf 2f3e 68a6 313f e8ea 253f 6c3f 3e3f
00000020: 408e 393e 06af 393e c052 603f bbb1 803f
00000030: ab83 133f 466f ba3f 4748 0a3f 7d50 803f
00000040: e3ff fe3e 5489 4f3f 032e 3c3f caea 3c3f
00000050: 0da1 103e dc0a 443f 512d 123f c7de 363e
00000060: b2a7 683f 6f30 263e e61e 4c3e 1e0e 7c3e
00000070: e5f6 363f 5651 223f 26f0 de3e 44ea 233e
00000080: ffbf 253f b824 323e c133 5c3e 842a 323e
00000090: 78fa 523f ff02 103f e41e 3a3e c5d8 1b3f
000000a0: 79f6 233f b65f 4a3f 2a11 1f3f 6bca 113e
000000b0: 28a5 513e adfe 793f 3854 3e3e cb42 373e
000000c0: cdb9 3d3e cf4b 803f 1727 5a3f 9750 8c3f
000000d0: 65ce 1f3e 2a73 6e3e 40f8 093e db1f 2b3e
000000e0: 6879 7b3f b4ce 2f3e 2651 153e a364 0e3f
000000f0: 5c1b 543f d358 2c3f 8ab3 3a3f ed9c 0c3f

fc.weight f4 [3, 64]
-0.3297321 -0.30807728 -0.3353596 -0.18313834 0.069542356 -0.3863912 -0.24582167 -0.2629691
-0.09614752 -0.21328878 0.37947717 0.42888442 -0.20779398 0.27517584 -0.28229538 0.42844823
0.35266998 -0.38131902 -0.40756112 -0.3854699 -0.14636563 -0.34005976 -0.28793225 -0.16214874
0.40004858 -0.29888114 -0.30532426 -0.31736377 -0.39525822 -0.24370866 -0.2839477 -0.21224883
-0.33839184 -0.0829239 -0.17110816 -0.29248026 -0.17774892 -0.18503751 -0.032352846 -0.32183254
-0.22753976 -0.33044466 0.3178883 -0.29604673 -0.14919187 -0.3560661 -0.26802745 -0.25916162
0.026481228 0.40600428 -0.4201752 0.3830781 -0.059972875 -0.23273502 -0.29506373 -0.025813414
-0.3913309 -0.2853704 -0.28400263 -0.33792597 -0.36945626 -0.29910383 -0.36003008 -0.13569175
0.2222439 0.18133527 0.16652937 -0.3210784 -0.40840268 0.21497019 0.198324 0.28635627
-0.2537381 -0.35661396 -0.066976905 0.029660242 0.23515776 0.07317558 0.269492 -0.039112125
-0.21756913 0.20752232 0.26936308 0.23264709 -0.333883 0.097157136 0.24016567 -0.28923875
0.17897666 -0.39301696 -0.37076 -0.26425767 0.11979528 0.20144738 0.26706484 -0.39303094
0.27410093 -0.29088122 -0.2547896 -0.38485602 0.2562474 0.23811506 -0.3593396 0.23423596
0.27856833 0.24378908 -0.17440745 -0.39691746 -0.311021 0.16343135 -0.2424111 -0.3480796
-0.35067406 0.10723338 0.08267926 0.17916623 -0.2731948 -0.36000565 -0.36654884 -0.4263306
0.10777596 -0.23510313 -0.3750785 0.2563739 0.20858437 0.1705063 0.28012854 0.28473067
0.090860896 -0.027327249 0.048747968 0.37377933 0.17382097 0.14594814 0.017274855 0.08844168
0.39543587 0.36034977 -0.26876584 -0.31430966 -0.023937615 -0.33869833 -0.098762 -0.3769381
-0.16538273 -0.013828314 0.10382335 0.05562485 0.36563307 -0.07091961 -0.05110006 0.34927118
-0.32209262 0.36033 0.23061995 0.2200453 -0.036437973 -0.08506667 -0.11062679 0.32541046
-0.0025885645 0.41772324 0.34835252 0.2551335 0.025663868 -0.06796004 0.31639183 -0.075206816
0.029296026 0.104426295 -0.1687354 0.31816754 0.35795105 0.029624874 0.40203354 0.27647656
0.36967006 -0.33596143 -0.033526473 -0.3243058 0.41319886 0.3610651 0.3783138 0.29557788
-0.050978325 0.32436457 0.35733822 -0.06169356 0.05253544 -0.05326358 0.09475685 -0.06450045
00000000: a5d2 a8be 4ebc 9dbe 41b4 abbe 9e88 3bbe
00000010: 396c 8e3d 11d5 c5be adb8 7bbe e3a3 86be
00000020: fee8 c4bd 6068 5abe d54a c23e bd96 db3e
00000030: f2c7 54be d9e3 8c3e 0589 90be 915d db3e
00000040: 2991 b43e 3f3c c3be daab d0be 505c c5be
00000050: dfe0 15be 501c aebe db6b 93be 520a 26be
00000060: 2bd3 cc3e f306 99be 7653 9cbe 817d a2be
00000070: 495f cabe c38e 79be 9861 91be c257 59be
00000080: b241 adbe 01d4 a9bd fa36 2fbe f9bf 95be
00000090: d003 36be 797a 3dbe 6b84 04bd 3cc7 a4be
000000a0: 2f00 69be 0b30 a9be 41c2 a23e 7093 97be
000000b0: c1c5 18be 4c4e b6be e53a 89be d5b0 84be
000000c0: 29ef d83c cbdf cf3e 3421 d7be d022 c43e
000000d0: 1ea6 75bd 1752 6ebe 9812 97be a776 d3bc
000000e0: 865c c8be 121c 92be cb68 91be a204 adbe
000000f0: 5f29 bdbe 2324 99be dd55 b8be c7f2 0abe
00000100: e893 633e f4af 393e ad86 2a3e 6364 a4be
00000110: 281a d1be 2521 5c3e 7215 4b3e 4a9d 923e
00000120: f6e9 81be 1b96 b6be 302b 89bd 09fa f23c
00000130: 32cd 703e 14dd 953d dbfa 893e 0934 20bd
00000140: 71ca 5ebe bb80 543e f5e9 893e 0a3b 6e3e
00000150: b6f2 aabe 52fa c63d fded 753e 1a17 94be
00000160: a845 373e 8539 c9be 41d4 bdbe c84c 87be
00000170: 3a57 f53d 3948 4e3e b9bc 883e 5a3b c9be
00000180: f556 8c3e 62ee 94be c873 82be d90b c5be
00000190: dc32 833e 6fd4 733e 5cfb b7be 8ddb 6f3e
000001a0: 82a0 8e3e d8a3 793e de97 32be c438 cbbe
000001b0: 253e 9fbe 8c5a 273e 9e3a 78be 7d37 b2be
000001c0: 8d8b b3be 2d9d db3d be53 a93d 5a77 373e
000001d0: 30e0 8bbe a952 b8be 4aac bbbe 0148 dabe
000001e0: a4b9 dc3d e0be 70be 4a0a c0be 7143 833e
000001f0: 2497 553e 3499 2e3e 026d 8f3e 38c8 913e
00000200: 4715 ba3d 65dd dfbc f3ab 473d 0160 bf3e
00000210: 20fe 313e 6e73 153e ff83 8d3c e920 b53d
00000220: 9276 ca3e c47f b83e ad9b 89be 32ed a0be
00000230: d118 c4bc de69 adbe bb43 cabd 08fe c0be
00000240: 175a 29be 2790 62bc 56a1 d43d e2d6 633d
00000250: 4234 bb3e 4d3e 91bd 4c4e 51bd acd3 b23e
00000260: 53e9 a4be 2c7d b83e a327 6c3e 8e53 613e
00000270: fc3f 15bd 6f37 aebd 4c90 e2bd 339c a63e
00000280: e8a4 29bb d2df d53e 435b b23e dca0 823e
00000290: 083d d23c a22e 8bbd 1cfe a13e 0806 9abd
000002a0: 38fe ef3c 74dd d53d f9c8 2cbe dbe6 a23e
000002b0: 5c45 b73e ddaf f23c 57d7 cd3e 568e 8d3e
000002c0: 6545 bd3e 2303 acbe 0e53 09bd 690b a6be
000002d0: cd8e d33e 86dd b83e 59b2 c13e fc55 973e
000002e0: a6ce 50bd 1d13 a63e 09f5 b63e 63b2 7cbd
000002f0: 672f 573d e92a 5abd e10f c23d d018 84bd

fc.bias f4 [3]
-0.0056633395 0.01042588 -0.06657311
00000000: 8993 b9bb 4fd1 2a3c 7c57 88bd
