ckpt/best_turn_speed_model.pth (torch, 98216 bytes, 7 tensors)

conv_layers.0.weight f4 [16, 3, 3, 3]
-0.024383077 -0.19300415 0.13523851 -0.060118146 -0.2120698 -0.05795893 0.17678566 -0.03579747
0.10507955 0.07697275 -0.19631316 0.07111504 -0.018072523 -0.19238943 0.1999313 -0.07628108
0.04946921 -0.045435257 0.15752949 -0.19335213 -0.119286664 -0.12855689 -0.23227541 -0.16274971
-0.10928778 0.18730383 -0.06819957 -0.04406408 0.13660103 0.07153368 -0.02080521 0.06251379
-0.07024965 -0.13503721 0.14765397 -0.033376414 0.062495485 -0.062403698 0.22914642 0.09283022
0.054569084 0.07276706 0.0069181817 0.118317895 -0.26478592 -0.0002047938 0.07148597 0.19509734
-0.08385108 -0.15679854 -0.19768058 0.13696633 -0.20044671 -0.06338058 0.12934363 -0.12051253
0.050974894 0.008844274 -0.12929752 -0.10595929 -0.07775957 -0.13623406 0.08866664 -0.047539983
0.1665824 0.08959974 -0.041108403 0.2008906 0.0060468605 0.002927711 -0.20356655 0.020094896
-0.08170138 0.15635225 0.1610618 -0.14081515 0.17694704 0.12250978 -0.1459775 -0.14058495
-0.1263078 0.19531219 0.1421598 0.18659864 -0.035950035 -0.21132916 0.06740914 -0.13228469
-0.14934105 -0.31433824 0.0316757 0.22871575 -0.02346528 -0.057160866 0.12548476 0.16843171
-0.011222865 -0.14332847 -0.10495368 0.09672674 0.18473123 0.20277742 -0.118495926 -0.14992656
-0.10347085 0.0041437303 -0.14148487 -0.0478482 -0.13652477 -0.08300313 0.14711258 -0.16384242
-0.08746827 -0.14020337 0.04148457 0.22960049 0.13586655 0.1363173 -0.17071155 -0.016787177
0.15598147 0.13300654 0.072581194 0.10902494 -0.0951735 -0.11056348 -0.11684056 -0.14589459
-0.1784011 -0.10861783 -0.023587681 0.06524837 -0.13673073 0.10182106 -0.16401382 0.1659351
-0.13548353 0.10322472 0.09096393 0.27752286 -0.26227102 -0.26405275 0.3556632 -0.15992624
0.17742908 0.0051055644 -0.21297707 0.015414678 0.16767088 -0.32521975 -0.10939293 0.04330208
-0.012598816 0.11723165 0.090780966 0.0991111 -0.16454533 0.27077198 -0.3007344 -0.012224373
0.18216209 -0.20476726 -0.063302524 0.12855314 0.26042697 -0.027049424 0.024121024 -0.07970619
-0.28334785 -0.03333999 -0.20119326 -0.038001705 0.13272105 0.046484735 -0.19776696 0.17998427
0.117605016 -0.2750738 0.07419947 -0.18391119 0.12336757 0.09404665 0.11684814 0.0345624
0.11413793 -0.065416634 -0.0640435 0.08475173 -0.018814066 -0.2675429 0.20701692 0.21112654
-0.056184933 0.23227884 0.21813244 -0.01486966 -0.08464919 -0.015856521 -0.1601358 0.24237469
0.15536319 -0.13527177 0.23960134 0.020423884 -0.048350785 -0.049535323 -0.21226878 -0.27734354
0.22210999 -0.00994911 -0.2591115 -0.05125623 0.16840038 -0.21236643 0.100646354 -0.16246733
0.15897287 0.10153449 0.054802317 0.04284836 0.1099296 0.12661502 0.16421731 0.012993722
0.00026242476 -0.025518894 -0.03972641 -0.06293175 0.020206217 -0.13334706 0.09362217 0.14353774
0.084005855 -0.06814691 0.13308255 -0.038698476 0.011430165 0.08286364 -0.16343072 0.034171313
0.026267068 0.15149511 -0.17558807 -0.21929924 -0.21926495 0.08548641 0.114019044 0.15745495
-0.034514595 0.30022326 0.28893057 -0.12576987 -0.27996278 -0.0030975442 -0.18322176 -0.118146084
00000000: 05bf c7bc e1a2 45be f77b 0a3e 723e 76bd
00000010: d328 59be 5866 6dbd 4d07 353e 5ea0 12bd
00000020: f233 d73d e4a3 9d3d 5106 49be c3a4 913d
00000030: d40c 94bc bc01 45be caba 4c3e 4139 9cbd
00000040: 3aa0 4a3d 521a 3abd 694f 213e 1afe 45be
00000050: 914c f4bd 6ba4 03be 9bd9 6dbe dca7 26be
00000060: 46d2 dfbd 93cc 3f3e 37ac 8bbd 897c 34bd
00000070: 24e1 0b3e 4080 923d b06f aabc 3b07 803d
00000080: 0cdf 8fbd 3247 0abe 9a32 173e b5b5 08bd
00000090: 44fb 7f3d 059b 7fbd 5ca5 6a3e c51d be3d
000000a0: d583 5f3d e506 953d eab1 e23b a750 f23d
000000b0: 0592 87be ebbd 56b9 3c67 923d 99c7 473e
000000c0: 1dba abbd cc8f 20be c76c 4abe e740 0c3e
000000d0: e741 4dbe adcd 81bd a872 043e 46cf f6bd
000000e0: 0dcb 503d 93e7 103c 9266 04be 2f01 d9bd
000000f0: 6940 9fbd f180 0bbe db96 b53d 49b9 42bd
00000100: 9494 2a3e 1280 b73d 4961 28bd 44b6 4d3e
00000110: be24 c63b d7de 3f3b c073 50be 0d9e a43c
00000120: 0e53 a7bd ce1a 203e 62ed 243e d931 10be
00000130: 9b31 353e 68e6 fa3d 207b 15be 80f5 0fbe
00000140: d556 01be ebff 473e 5792 113e b713 3f3e
00000150: 5840 13bd ac66 58be ce0d 8a3d a375 07be
00000160: dcec 18be f1f0 a0be 61be 013d 7634 6a3e
00000170: 423a c0bc 8321 6abd 147f 003e 5d79 2c3e
00000180: 1ce0 37bc b3c4 12be f4f1 d6bd ab18 c63d
00000190: 2f2a 3d3e e2a4 4f3e fead f2bd 5986 19be
000001a0: 86e8 d3bd 21c8 873b 69e1 10be 79fc 43bd
000001b0: 26cd 0bbe 8cfd a9bd aea4 163e 4fc6 27be
000001c0: 9022 b3bd 7991 0fbe b9eb 293d 641c 6b3e
000001d0: 9a20 0b3e c396 0b3e 02cf 2ebe 4385 89bc
000001e0: 9bb9 1f3e de32 083e 73a5 943d 7848 df3d
000001f0: 53ea c2bd 1b6f e2bd 1b4a efbd 6465 15be
00000200: c7ae 36be 0673 debd f43a c1bc f0a0 853d
00000210: 2403 0cbe 8f87 d03d 3df3 27be e4ea 293e
00000220: 32bc 0abe 7b67 d33d 4c4b ba3d 7a17 8e3e
00000230: 6348 86be ec31 87be 7d19 b63e b4c3 23be
00000240: f8af 353e 944c a73b a916 5abe d88d 7c3c
00000250: eab1 2b3e 3483 a6be 6709 e0bd 865d 313d
00000260: 446b 4ebc 2617 f03d 5feb b93d c3fa ca3d
00000270: 927e 28be a0a2 8a3e dcf9 99be bd48 48bc
00000280: b388 3a3e 82ae 51be c1a4 81bd 6fa3 033e
00000290: af56 853e c196 ddbc 7499 c53c 003d a3bd
000002a0: f812 91be 838f 08bd 9b05 4ebe ada7 1bbd
000002b0: 07e8 073e c766 3e3d 6c83 4abe cc4d 383e
000002c0: e6da f03d 79d6 8cbe e4f5 973d 3753 3cbe
000002d0: 23a8 fc3d 889b c03d 144e ef3d 4e91 0d3d
000002e0: 26c1 e93d 28f9 85bd 3d29 83bd 5192 ad3d
000002f0: f51f 9abc 62fb 88be 3efc 533e 8e31 583e
00000300: 2c22 66bd 81da 6d3e 1c5e 5f3e e09f 73bc
00000310: 8e5c adbd 89e5 81bc a4fa 23be 1231 783e
00000320: 8717 1f3e af84 0abe 0e5a 753e fd4f a73c
00000330: 790b 46bd 8de5 4abd fd5c 59be f9ff 8dbe
00000340: cd70 633e 9801 23bc 43aa 84be 0df2 51bd
00000350: 2671 2c3e 9676 59be ad1f ce3d d65d 26be
00000360: c9c9 223e 51f1 cf3d 6578 603d c381 2f3d
00000370: c522 e13d 5ea7 013e 9528 283e 9fe3 543c
00000380: 0e96 8939 000d d1bc 29b8 22bd 5de2 80bd
00000390: 8287 a53c 228c 08be fbbc bf3d 8ffb 123e
000003a0: 430b ac3d 9b90 8bbd cb46 083e 4b82 1ebd
000003b0: 9645 3b3c 69b4 a93d 625a 27be 38f7 0b3d
000003c0: 092e d73c 8921 1b3e 5ccd 33be fb8f 60be
000003d0: fe86 60be 8013 af3d d182 e93d df3b 213e
000003e0: 2d5f 0dbd ddb6 993e b5ee 933e d1c9 00be
000003f0: 4857 8fbe 2b00 4bbb 7c9e 3bbe 93f6 f1bd

conv_layers.0.bias f4 [16]
0.12368574 0.13448815 0.033820786 0.057685915 0.031920925 -0.13299462 -0.23272346 0.061008763
-0.07425813 0.09026383 0.08008122 -0.0154335005 -0.10476237 0.010788767 0.05738456 -0.036499295
00000000: f34e fd3d 43b7 093e aa87 0a3d 1148 6c3d
00000010: 84bf 023d be2f 08be 0f4f 6ebe 53e4 793d
00000020: a514 98bd 3edc b83d 9f01 a43d cbdc 7cbc
00000030: a78d d6bd 5ec3 303c 130c 6b3d 4980 15bd

conv_layers.3.weight f4 [32, 16, 3, 3]
0.053312674 0.009077378 0.035998546 -0.042482633 -0.07000482 0.05384731 0.04594041 -0.010266604
0.00069548097 -0.09988226 -0.011533643 -0.018174484 -0.020325981 -0.030015199 -0.015683709 -0.035834085
-0.062197857 0.06358658 0.05780764 -0.09218894 0.017775858 0.053149916 -0.007828784 0.00040512352
-0.0756237 -0.094718285 -0.016180076 -0.06966428 -0.047609624 0.053139444 0.0022402895 0.0013824084
-0.11503995 0.07216854 0.037765317 0.14453544 -0.07098722 0.021130446 -0.04919493 -0.05978539
-0.08385129 0.059959862 0.026906533 0.034059573 -0.10395347 0.036077127 -0.08206516 -0.103408046
0.027468175 -0.0010522386 0.018812964 -0.16447376 -0.03377425 0.032467667 0.067415535 0.04837282
-0.015508258 -0.24546967 -0.09492682 -0.085848354 -0.14701414 0.09195909 0.04661992 0.1839259
-0.08843583 -0.11491365 -0.1523777 0.022000114 -0.012627361 -0.120885015 -0.06894187 0.088151455
0.04221441 -0.032878008 -0.08456414 -0.02284853 -0.0227102 -0.00079187617 -0.05323274 -0.0072941305
0.045494027 0.23161483 -0.06183584 -0.076112285 -0.15517755 -0.09227776 -0.0016261181 -0.10521057
-0.041020747 -0.004613874 -0.04393987 -0.113525935 -0.10270982 -0.0514985 -0.008646986 -0.023884308
-0.09157546 -0.11444067 -0.051035915 -0.0029413642 0.025927447 -0.01933889 0.025915809 0.05476197
-0.022481797 0.0015825282 0.056432605 0.07305343 -0.0112601435 -0.08700475 -0.012236399 0.049051832
-0.05045809 -0.042245828 0.0420616 -0.0056987195 0.085422255 0.083868206 -0.075202845 -0.0270752
-0.07586968 0.026561806 -0.10958673 -0.09314741 0.014888114 -0.06347356 -0.059987146 0.019394835
0.020018442 -0.065086976 -0.04027839 0.064812936 -0.04967015 -0.060682185 0.011129098 -0.048336823
-0.07666283 -0.08758402 -0.06324622 0.025171988 -0.012183215 -0.02930795 -0.06662003 -0.105776
0.014859734 -0.08146202 0.032781366 0.024389103 -0.037566435 -0.09789764 -0.09042825 -0.108609416
-0.010975815 0.049780346 0.009315926 -0.095662616 -0.063412614 -0.0858474 -0.022006962 -0.03482036
0.025906198 -0.10542095 -0.025990153 -0.0495438 -0.064845085 -0.074786924 -0.0076040556 -0.05931572
-0.025062392 -0.0008720268 0.048033815 0.058437247 -0.08367832 -0.06298997 -0.101803094 -0.043623004
-0.021623818 0.042924214 0.041649505 -0.004797654 -0.028255487 -0.082915194 -0.061406806 -0.09600504
-0.035666347 -0.02866015 0.02351271 -0.07740481 0.050789926 0.009001072 0.008204292 -0.06570689
-0.03782018 0.0058943145 0.009469401 -0.04227004 -0.05728506 -0.11125829 -0.08769803 -0.017235307
-0.07294431 0.04034011 -0.003154355 -0.049815405 -0.05726272 -0.046552747 0.026357498 0.011134587
-0.073938005 0.056090485 0.023454247 0.010398921 0.030733388 -0.095756695 0.0503475 0.007406975
-0.058050103 -0.09042278 0.012739472 -0.05399923 -0.0066396086 0.0486174 -0.046014294 -0.09427891
-0.08931005 -0.0756468 -0.05655876 0.051812895 -0.097525686 0.062200144 0.03364092 0.031417366
0.040080477 -0.10606511 -0.054830004 -0.064855024 0.026655577 -0.10281259 -0.012222127 -0.09272144
-0.02024702 0.038572855 0.034290586 0.08834369 -0.01931492 -0.095910855 -0.094296195 -0.006483347
-0.05373437 0.029836088 -0.055226315 -0.056114294 -0.02909293 -0.06742094 0.052690506 0.015028139
00000000: 645e 5a3d 48b9 143c 3673 133d 4502 2ebd
00000010: b05e 8fbd ff8e 5c3d 032c 3c3d 4235 28bc
00000020: f050 363a 128f ccbd 9bf7 3cbc a8e2 94bc
00000030: ac82 a6bc 6fe2 f5bc 1f7b 80bc c3c6 12bd
00000040: 2ec3 7ebd ae39 823d b4c7 6c3d 8ecd bcbd
00000050: ad9e 913c bab3 593d 4d44 00bc c266 d439
00000060: 99e0 9abd a9fb c1bd 148c 84bc 25ac 8ebd
00000070: 4f02 43bd bfa8 593d d2d1 123b ee31 b53a
00000080: 119a ebbd 19cd 933d ceaf 1a3d 1901 143e
00000090: bf61 91bd c219 ad3c 9f80 49bd 86e1 74bd
000000a0: 3aba abbd 7998 753d 176b dc3c 0d82 0b3d
000000b0: 8fe5 d4bd 9cc5 133d c711 a8bd 99c7 d3bd
000000c0: f004 e13c 45eb 89ba a51d 9a3c cf6b 28be
000000d0: de56 0abd d1fc 043d 2811 8a3d 9422 463d
000000e0: 5916 7ebc 675c 7bbe fe68 c2bd 43d1 afbd
000000f0: e08a 16be 0c55 bc3d 87f4 3e3d 1257 3c3e
00000100: d81d b5bd d957 ebbd e608 1cbe 9539 b43c
00000110: fee2 4ebc 9092 f7bd 6531 8dbd c088 b43d
00000120: 04e9 2c3d 17ab 06bd f72f adbd d72c bbbc
00000130: be0a babc e995 4fba 930a 5abd 9a03 efbb
00000140: f257 3a3d 702c 6d3e 9447 7dbd c2e0 9bbd
00000150: dde6 1ebe 1ffc bcbd 7823 d5ba a478 d7bd
00000160: 5f05 28bd fb2f 97bb 4bfa 33bd 4980 e8bd
00000170: 8759 d2bd 17f0 52bd 17ac 0dbc 06a9 c3bc
00000180: ea8b bbbd df5f eabd 090b 51bd e7c3 40bb
00000190: cc65 d43c 986c 9ebc 644d d43c 164e 603d
000001a0: bf2b b8bc d66c cf3a e025 673d 099d 953d
000001b0: 777c 38bc 8c2f b2bd 2d7b 48bc 93ea 483d
000001c0: 24ad 4ebd f609 2dbd c948 2c3d 53bc babb
000001d0: ddf1 ae3d 18c3 ab3d f303 9abd cfcc ddbc
000001e0: 9061 9bbd 2598 d93c 026f e0bd 12c4 bebd
000001f0: 47ed 733c 6dfe 81bd 15b5 75bd ebe1 9e3c
00000200: b7fd a33c 524c 85bd f4fa 24bd a5bc 843d
00000210: ed72 4bbd e28d 78bd d256 363c d5fc 45bd
00000220: 6701 9dbd 405f b3bd 3c87 81bd 7c35 ce3c
00000230: 1b9c 47bc 3a17 f0bc 1570 88bd 16a1 d8bd
00000240: 3e76 733c 8fd5 a6bd c145 063d a8cb c73c
00000250: 43df 19bd 8f7e c8bd 7232 b9bd 9d6e debd
00000260: e8d3 33bc 7ae6 4b3d d3a1 183c c3ea c3bd
00000270: 79de 81bd c3d0 afbd f247 b4bc cb9f 0ebd
00000280: 3c39 d43c f0e6 d7bd 4de9 d4bc 71ee 4abd
00000290: 80cd 84bd e329 99bd 712b f9bb 0af5 72bd
000002a0: a54f cdbc ba98 64ba 1bbf 443d e55b 6f3d
000002b0: 8a5f abbd e300 81bd 247e d0bd 09ae 32bd
000002c0: 6f24 b1bc 4dd1 2f3d ac98 2a3d a435 9dbb
000002d0: 0d78 e7bc 71cf a9bd b485 7bbd 4a9e c4bd
000002e0: e016 12bd b1c8 eabc ba9d c03c 6a86 9ebd
000002f0: 1909 503d 3b79 133c 4b6b 063c 5591 86bd
00000300: 55e9 1abd 1825 c13b 8c25 1b3c 5923 2dbd
00000310: bda3 6abd 63db e3bd 069b b3bd 0f31 8dbc
00000320: d463 95bd ac3b 253d 4cb9 4ebb 3d0b 4cbd
00000330: 508c 6abd 18ae 3ebd aeeb d73c d86d 363c
00000340: cf6c 97bd 23bf 653d 1f23 c03c 3c60 2a3c
00000350: 96c4 fb3c 161c c4bd 2e39 4e3d 36b6 f23b
00000360: f2c5 6dbd 942f b9bd 38b9 503c 4c2e 5dbd
00000370: 1391 d9bb 0a23 473d 7c79 3cbd 4d15 c1bd
00000380: 30e8 b6bd b6ec 9abd 29aa 67bd c239 543d
00000390: 8cbb c7bd 94c5 7e3d 10cb 093d 7faf 003d
000003a0: 6d2b 243d aa38 d9bd 6d95 60bd b6d2 84bd
000003b0: cc5c da3c 688f d2bd 513f 48bc bde4 bdbd
000003c0: 14dd a5bc 92fe 1d3d 4974 0c3d 89ed b43d
000003d0: 533a 9ebc e96c c4bd 5d1e c1bd 4272 d4bb
000003e0: 9218 5cbd d06a f43c fd34 62bd 1ad8 65bd
000003f0: 4c54 eebc fd13 8abd 00d2 573d 9538 763c

conv_layers.3.bias f4 [32]
-0.021363277 -0.098242424 -0.08453553 -0.10712355 -0.07302833 -0.11687115 -0.049705405 0.018327734
-0.028391099 0.07301815 -0.03906153 -0.061762713 -0.05796758 -0.09071111 0.0377325 -0.13323472
-0.16462424 -0.04595008 0.00023854987 0.036494434 -0.044711053 0.025663262 0.13035324 0.025547016
0.002907883 -0.003712778 -0.005194361 -0.06675571 -0.08556079 -0.0009958536 -0.026560532 0.012939128
00000000: 0a02 afbc 5333 c9bd f720 adbd 9763 dbbd
00000010: e18f 95bd 245a efbd e597 4bbd 0b24 963c
00000020: 7394 e8bc 8a8a 953d fcfe 1fbd e6fa 7cbd
00000030: 6a6f 6dbd bfc6 b9bd 658d 1a3d af6e 08be
00000040: 4293 28be 2736 3cbd 3e23 7a39 307b 153d
00000050: f022 37bd c33b d23c 527b 053e fa47 d13c
00000060: 2e92 3e3b 1452 73bb 7535 aabb 38b7 88bd
00000070: 7f3a afbd 4d87 82ba 7995 d9bc a3fe 533c

conv_layers.6.weight f4 [64, 32, 3, 3]
-0.050392546 -0.06963317 -0.059813205 0.031329673 -0.028909873 -0.052321374 -0.0835461 -0.091779
0.023388201 0.015192586 0.017484821 -0.046650052 0.052230317 -0.024638096 0.048317336 0.033319402
-0.022125062 0.03988085 -0.18392634 -0.14018841 -0.13605867 -0.1551329 -0.037550364 -0.06488052
0.015688743 0.06790224 0.071626596 -0.017311132 0.025179196 0.005731577 -0.019158827 -0.02949862
-0.009297059 0.03638823 -0.05381369 -0.0031003845 0.050366696 0.06576745 -0.017180394 -0.032873683
0.024996884 0.079300664 -0.039583907 0.034616884 0.07964268 0.067370586 0.045143783 0.09012656
-0.023385597 -0.00055043376 -0.047013007 -0.024101436 -0.09600649 0.008476155 0.13717622 0.10430114
-0.04819214 0.007471632 -0.007833162 0.005750218 -0.10498712 -0.17369168 -0.16860096 0.016106289
0.056270365 0.049065392 0.0041739726 -0.0033273322 -0.05261081 0.0044655823 -0.0006014377 0.0137118045
0.00830578 -0.00814856 0.025394704 -0.09886019 -0.085732445 -0.048814904 -0.04127929 -0.005381845
0.021746507 0.113695644 -0.004386465 0.000790979 -0.24465273 -0.17223671 -0.14870706 -0.4972294
-0.31768158 -0.16386582 -0.030069409 -0.03306021 0.031910807 -0.02615572 -0.03064398 -0.0061492617
-0.018591212 0.0123658795 -0.018775277 0.2389117 0.17301144 0.18057907 0.3165472 0.22223927
0.060376287 0.1468327 -0.14154744 -0.11088945 -0.050800204 -0.06658754 -0.05266837 -0.08132536
0.00048993813 0.05236417 0.005749263 -0.005402552 0.0911028 0.012702005 -0.016781298 -0.07261032
-0.036699276 -0.048260182 -0.05334144 -0.055711504 -0.053366635 -0.027081756 -0.06036516 -0.1055244
-0.00114729 -0.018702451 0.08821776 -0.015005963 -0.064386345 -0.013983352 0.018750675 -0.2165593
-0.1740315 -0.20477481 -0.4059461 -0.23817442 -0.21048848 -0.23126976 -0.26701838 -0.26193076
-0.14954026 -0.1701192 -0.0072635156 0.047942515 -0.05826827 -0.0009938873 -0.067894734 -0.10026066
-0.04923371 0.11963907 0.071757264 0.1303266 0.3054406 0.103322245 0.062633894 -0.3019603
-0.11621246 0.02110589 -0.013532998 0.016516037 0.22681038 -0.030655514 -0.09001859 0.050561298
-0.091229476 -0.14190362 -0.105520956 -0.023645287 -0.038283292 -0.019026464 0.040522013 0.019544333
0.048455384 0.065823555 -0.047402233 -0.04881759 0.083148345 0.14049724 -0.024534782 0.14306676
0.19503276 0.063379385 -0.118684016 0.13835068 0.13609044 0.009857349 -0.25556454 -0.13582657
-0.08530672 -0.13531968 -0.14554074 -0.07906301 -0.030234471 0.03066063 0.026500618 -0.02210737
-0.0027889498 0.006378663 0.007670997 -0.08860622 0.07851042 0.02099046 -0.09268257 -0.08988071
0.06538116 -0.03747179 0.11962669 0.08361848 0.16071925 -0.07479331 -0.07730849 0.09458021
0.06372071 0.12877671 0.085002385 -0.1362186 -0.10469742 -0.08472174 -0.20468757 -0.15219082
-0.17232533 0.011472159 -0.0037259404 -0.1293674 -0.29700178 -0.1393431 -0.14213453 -0.5238165
-0.32491887 -0.14312163 -0.039557267 0.04155964 0.002559394 0.020423066 0.010292598 0.008554739
-0.0036307517 0.024769954 -0.0922098 0.020360598 0.1267879 0.05936161 0.1778828 0.13475847
0.17057323 -0.14802107 0.03126543 0.15099972 0.0014527466 0.012877097 0.061613932 -0.11735921
00000000: 6a68 4ebd d69b 8ebd b1fe 74bd 8b53 003d
00000010: 66d4 ecbc f04e 56bd 381a abbd a1f6 bbbd
00000020: 9d98 bf3c 53ea 783c 543c 8f3c 2014 3fbd
00000030: 75ef 553d d5d5 c9bc 66e8 453d ed79 083d
00000040: 9e3f b5bc 1a5a 233d 3057 3cbe 8d8d 0fbe
00000050: f752 0bbe 29db 1ebe 69ce 19bd 14e0 84bd
00000060: ae85 803c 5410 8b3d f7b0 923d 13d0 8dbc
00000070: 9a44 ce3c f4cf bb3b f9f2 9cbc 17a7 f1bc
00000080: b152 18bc d30b 153d be6b 5cbd d22f 4bbb
00000090: 4f4d 4e3d 16b1 863d e6bd 8cbc 8ea6 06bd
000000a0: 44c6 cc3c 6368 a23d bc22 22bd 6fca 0d3d
000000b0: b41b a33d 97f9 893d b0e8 383d 4694 b83d
000000c0: 2793 bfbc fc4a 10ba b690 40bd 6070 c5bc
000000d0: 0d9f c4bd 92df 0a3c ec77 0c3e d69b d53d
000000e0: 1f65 45bd 98d4 f43b aa56 00bc 536c bc3b
000000f0: 7d03 d7bd 3bdc 31be bba5 2cbe 56f1 833c
00000100: c17b 663d cbf8 483d d2c5 883b 5f0f 5abb
00000110: 6f7e 57bd 0554 923b cda9 1dba 7aa7 603c
00000120: f714 083c 8a81 05bc 8e08 d03c 3677 cabd
00000130: 7e94 afbd 23f2 47bd 7914 29bd 305a b0bb
00000140: bb25 b23c 43d9 e83d 56bc 8fbb b459 4f3a
00000150: 3f86 7abe d25e 30be aa46 18be da94 febe
00000160: 29a7 a2be 71cc 27be 1f54 f6bc 256a 07bd
00000170: e8b4 023d 8544 d6bc 1509 fbbc bf7f c9bb
00000180: 994c 98bc 429a 4a3c 9cce 99bc 45a5 743e
00000190: e929 313e b8e9 383e 7912 a23e b192 633e
000001a0: 204d 773d 505b 163e d0f1 10be 021a e3bd
000001b0: e013 50bd 0c5f 88bd caba 57bd e98d a6bd
000001c0: 316f 003a d07b 563d 5064 bc3b e407 b1bb
000001d0: 1b94 ba3d 121c 503c ef78 89bc b8b4 94bd
000001e0: fb51 16bd 78ac 45bd 8e7c 5abd bf31 64bd
000001f0: f996 5abd 8fda ddbc 7541 77bd 2d1d d8bd
00000200: aa60 96ba e235 99bc 83ab b43d 92db 75bc
00000210: fddc 83bd 6e1a 65bc 049b 993c b9c1 5dbe
00000220: 5035 32be 7db0 51be 2bd8 cfbe ffe3 73be
00000230: 4b8a 57be fbd1 6cbe a2b6 88be ca1b 86be
00000240: 1521 19be ba33 2ebe c902 eebb 5f5f 443d
00000250: b6aa 6ebd 5345 82ba 650c 8bbd 7655 cdbd
00000260: 49a9 49bd 5405 f53d 79f5 923d 5674 053e
00000270: b662 9c3e 9d9a d33d 3346 803d 8a9a 9abe
00000280: cc00 eebd 42e6 ac3c 82b9 5dbc a44c 873c
00000290: fb40 683e 4621 fbbc ab5b b8bd 5d19 4f3d
000002a0: 85d6 babd 2f4f 11be 5f1b d8bd c3b3 c1bc
000002b0: f1ce 1cbd 63dd 9bbc 69fa 253d 701b a03c
000002c0: 2779 463d 80ce 863d d828 42bd f4f4 47bd
000002d0: ae49 aa3d 82de 0f3e 2bfd c8bc 1880 123e
000002e0: abb6 473e 0dcd 813d 9b10 f3bd cdab 0d3e
000002f0: 4b5b 0b3e b880 213c 5bd9 82be 1f16 0bbe
00000300: 4ab5 aebd 3e91 0abe a208 15be caeb a1bd
00000310: 48ae f7bc 002c fb3c d317 d93c 841a b5bc
00000320: d0c6 36bb 1a04 d13b fd5c fb3b 2e77 b5bd
00000330: 12ca a03d 2ff4 ab3c 5cd0 bdbd 6113 b8bd
00000340: 8fe6 853d 057c 19bd d7fe f43d 2a40 ab3d
00000350: 9693 243e 3c2d 99bd ea53 9ebd 45b3 c13d
00000360: 0180 823d 0bde 033e bb15 ae3d e47c 0bbe
00000370: 9a6b d6bd 9782 adbd 9e99 51be e9d7 1bbe
00000380: 0d76 30be b9f5 3b3c e82e 74bb e378 04be
00000390: 9e10 98be f5af 0ebe b78b 11be d718 06bf
000003a0: c45b a6be 7a8e 12be cd06 22bd 713a 2a3d
000003b0: 82bb 273b 464e a73c 49a2 283c 2d29 0c3c
000003c0: e8f1 6dbb 5cea ca3c 7ed8 bcbd 45cb a63c
000003d0: b0d4 013e 2925 733d e926 363e 20fe 093e
000003e0: c0aa 2e3e d692 17be 2e10 003d ac9f 1a3e
000003f0: 166a be3a 76fa 523c e45e 7c3d 075a f0bd

conv_layers.6.bias f4 [64]
-0.031818144 -0.0031807323 0.015298298 -0.0059006824 -0.037693556 -0.09551971 -0.04817874 -0.06890462
-0.112769544 -0.053325046 0.022834722 -0.00579258 -0.06412173 0.030189695 -0.03119412 -0.07566439
-0.00056091027 -0.086560205 0.04084335 -0.04124048 -0.05976393 -0.024734419 -0.007886105 -0.019567387
-0.081675604 -0.040879257 -0.01187623 -0.026780268 -0.008370281 -0.02775927 0.022391997 -0.04834166
-0.08522577 0.03258388 -0.008097135 0.030355508 -0.036039483 -0.0038254652 -0.06866441 -0.07501906
-0.07180285 0.025688384 0.020500386 -0.043049935 -0.027840447 0.022596302 -0.07023902 -0.018845811
-0.07547499 0.033456877 0.018532667 -0.02600849 0.023450565 0.0062576407 -0.016803175 -0.05863844
-0.1498381 0.011789119 -0.014098575 -0.042552855 -0.06256431 0.014626632 -0.021066904 -0.052188672
00000000: be53 02bd d573 50bb b6a5 7a3c 835a c1bb
00000010: 8f64 1abd d69f c3bd 1257 45bd de1d 8dbd
00000020: b8f3 e6bd 5d6b 5abd e20f bb3c afcf bdbb
00000030: 4152 83bd 6150 f73c d08a ffbc eff5 9abd
00000040: 0d0a 13ba 7a46 b1bd 5b4b 273d c7eb 28bd
00000050: 06cb 74bd d69f cabc b934 01bc c94b a0bc
00000060: 8a45 a7bd 0271 27bd 8594 42bc 4b62 dbbc
00000070: 8123 09bc 6967 e3bc 6c6f b73c e801 46bd
00000080: d98a aebd ad76 053d d9a9 04bc 1dac f83c
00000090: 239e 13bd a8b4 7abb ed9f 8cbd 98a3 99bd
000000a0: 5f0d 93bd 7270 d23c 6df0 a73c 2155 30bd
000000b0: a611 e4bc e11b b93c 7ad9 8fbd 8862 9abc
000000c0: a292 9abd 140a 093d d2d1 973c c20f d5bc
000000d0: 661b c03c e50c cd3b d0a6 89bc dc2e 70bd
000000e0: 296f 19be 2627 413c b6fd 66bc e74b 2ebd
000000f0: b821 80bd 8ba4 6f3c 8094 acbc cac3 55bd

fc.weight f4 [1, 64]
0.2101454 -0.2926882 -0.101677865 -0.07787345 -0.122356884 0.026715498 0.23636247 -0.5133789
0.25876528 -0.0494253 0.11334473 0.07842319 0.13054997 -0.089235134 -0.072347715 0.14109625
-0.13325952 0.21837813 -0.12457322 -0.14924313 0.116843835 -0.13846117 -0.17873451 -0.078725696
0.32019556 -0.093918934 -0.07825837 0.083817944 -0.080695845 0.11689612 -0.07391009 -0.10177336
0.2567685 -0.10202756 -0.19493726 -0.107651584 0.34674022 -0.009526723 0.11941001 0.22930421
0.10595635 0.1530245 0.095227964 0.07007594 0.08733514 0.06374518 0.10868465 -0.20962138
0.19768576 -0.057187866 0.068066016 0.12014884 -0.02182509 -0.09501039 0.012839476 -0.14016345
0.4167211 -0.0716971 -0.4028336 -0.14276226 0.10221472 0.05333867 -0.41417906 0.21437073
00000000: 5b30 573e 3adb 95be 7c3c d0bd 1e7c 9fbd
00000010: 3f96 fabd 76da da3c 0109 723e cd6c 03bf
00000020: e27c 843e 2f72 4abd 4821 e83d 569c a03d
00000030: e4ae 053e e9c0 b6bd 0a2b 94bd 897b 103e
00000040: 2f75 08be 849e 5f3e 3f20 ffbd 31d3 18be
00000050: d24b ef3d c4c8 0dbe 2e06 37be f03a a1bd
00000060: acf0 a33e 9258 c0bd ed45 a0bd bea8 ab3d
00000070: dd43 a5bd 3c67 ef3d 2c5e 97bd 8d6e d0bd
00000080: 2977 833e d3f3 d0bd a29d 47be 6f78 dcbd
00000090: ef87 b13e f915 1cbc 3c8d f43d b9ce 6a3e
000000a0: a5ff d83d 74b2 1c3e e106 c33d f983 8f3d
000000b0: c4dc b23d d58c 823d 0f96 de3d fda6 56be
000000c0: 236e 4a3e d33d 6abd 3266 8b3d 9810 f63d
000000d0: 88ca b2bc cf94 c2bd aa5c 523c 0287 0fbe
000000e0: 785c d53e eed5 92bd 3540 cebe 4530 12be
000000f0: f355 d13d a679 5a3d 470f d4be 0084 5b3e
